HoofWorkStudy/Models/best_model.pth (torch, 8102 bytes, 6 tensors)

first_layer.weight f4 [32, 6]
00000000: 67ce babe ba24 003e f246 4dbd d097 63bc
00000010: 788a babc bca9 c5be 1c45 9fbe b77e 8cbe
00000020: 9833 87bd 4cee ebbd 5ec6 b8be 2417 d33e
00000030: 176c 733e e284 c5be f20e 383e b72f 66be
00000040: 3996 713e 90d5 023d e124 ab3e 4828 82be
00000050: 47a2 023d 3194 ee3e 703a c8bb ba1a ec3e
00000060: 58de ab3d 79f9 bdbe 2cb9 c23e 9c76 1bbe
00000070: e8ce c0bd 9fc9 41be d474 50be 43bf 72be
00000080: 64c5 84be ade4 b5be 7d28 58be 2221 8c3e
00000090: 4c21 e7bd a43f 18be 3f05 c3be 7c0a acbd
000000a0: f0eb 26be 5242 be3e f199 55be 2ee6 08be
000000b0: 9e85 79be 1d4c 963e 0e47 04be b913 eb3d
000000c0: 935b bb3e 7125 aa3e 53b5 cf3e 4991 a63d
000000d0: fa9a f93e 4479 4dbe 63a8 59bd a86a 653e
000000e0: 1874 28be 4683 b8be 0bcd 60be 6840 c03c
000000f0: cc25 993e 4f99 86be 8f99 c03d 9444 adbe
00000100: 8331 f03c 6eb5 323e eac2 e9be 844f 523e
00000110: 8ecc 1d3e 28ee e0bd 7642 6f3c 84a6 98be
00000120: 1e6c 71be 4412 d93e bf17 ad3d d009 39be
00000130: 8349 543e 00d7 8b3e 19ef 033d e50c b13d
00000140: f6ff e7bd 8198 653d 8ec9 523d 6eec 96be
00000150: c2d1 5b3e 4621 82bd 6b09 65be 447c a03e
00000160: f075 903d 5a09 b53d a837 993d 3425 afbd
00000170: bed2 9b3e 32a2 18be 3ce6 a4bd 79d2 cbbe
00000180: 9890 d0bd 3c2f 2ebe 4f7f c93e 0c16 a0bd
00000190: 0454 69be 51ef a2be 17d6 0d3e 7902 f1be
000001a0: 77c2 cfbe 8888 893e beb9 ce3d 24eb 90be
000001b0: 14d2 bfbe 8eeb 253e 2f21 40be 2f3e 70bd
000001c0: 9515 0d3e 76be e4bd 9bd4 c93e 4331 4b3d
000001d0: 1ec6 013e 8ba9 02be a99b 84be 6121 8b3e
000001e0: da1a 203d 2654 43be fd6c 5cbd 9911 a4be
000001f0: 13d7 5f3e 872d 8dbd 0499 a4bd eebc 21be
00000200: 0085 cdbd 3fe7 d0be 5c3b 5d3e ebd1 afbe
00000210: 461b 863e b046 97bc 3ccf a43e dde8 99be
00000220: 5f04 903d ba4c cdbd 76db 643c a85c 933e
00000230: d6d2 ddbc 8cbf 9e3e 2f69 943e 1958 85be
00000240: b35c ba3e 6b76 af3e b2b6 dcbc 0961 82be
00000250: 5d62 c9be c48b b93d a847 0d3e 6497 eabd
00000260: 03f6 3ebe 40f7 103d 0c49 003e b079 b0be
00000270: 4b87 6cbe 11e8 093e be59 643e 4cfd 63be
00000280: f4ba babe b58e 943e 9be3 9c3e 1c2e 9a3e
00000290: 6cbd 0ebd 66c0 99be 3d75 833e fc69 b63e
000002a0: 168d 93be 1961 01be 551b 97bd 901f 91bb
000002b0: 9f88 72be d557 82bd 70b9 8e3e aacb b6be
000002c0: 5ef0 023e e37b 0bbe ad8a 28be c326 47be
000002d0: 5dbb 86be 2b34 95bd 7880 6b3e 8ad6 d73e
000002e0: 0ba6 3abe 66ea 12be 17c4 68be 6080 cdbe
000002f0: a989 8d3e 97e4 46be cc04 5f3e 478c 773e
-0.36485597 0.1251401 -0.050116487 -0.013891175 -0.022771105 -0.3860606 -0.31107414 -0.27440426
-0.066016376 -0.11520061 -0.36088842 0.41228592 0.23771702 -0.38577944 0.17974451 -0.2247914
0.23592462 0.03194195 0.33426574 -0.25421357 0.03189304 0.46597436 -0.006110482 0.4611414
0.08392018 -0.37104395 0.380319 -0.15181965 -0.09414464 -0.18924569 -0.20357066 -0.23705773
-0.25931847 -0.35526028 -0.21109195 0.27369028 -0.11285648 -0.14868027 -0.3808994 -0.08400437
-0.1630094 0.37159973 -0.20859505 -0.13369057 -0.24367377 0.29354945 -0.1291773 0.11478371
0.36593303 0.3323169 0.40568027 0.0813318 0.4875105 -0.2006579 -0.0531391 0.22403967
-0.16450536 -0.36037654 -0.21953218 0.023468211 0.2991165 -0.2628884 0.09404289 -0.33841383
0.029320484 0.17452022 -0.4565652 0.20538145 0.15410063 -0.10982925 0.014603248 -0.2981454
-0.235764 0.42396748 0.08451795 -0.1807015 0.20731167 0.2731247 0.032210443 0.086450376
-0.113281175 0.056053642 0.05146175 -0.29477257 0.21466735 -0.06354003 -0.22366874 0.31344807
0.07053745 0.08839674 0.07481319 -0.08552018 0.3043422 -0.14905623 -0.08051726 -0.39809015
-0.10183829 -0.17010206 0.3935494 -0.07816705 -0.22785956 -0.3182321 0.138512 -0.470722
-0.40578052 0.26861978 0.10094021 -0.28304398 -0.37464964 0.16203138 -0.18762659 -0.058653053
0.13777764 -0.1116914 0.39420018 0.049607527 0.12673232 -0.12759988 -0.2590001 0.27173904
0.039088108 -0.19075069 -0.053814877 -0.32044676 0.21859388 -0.06893449 -0.08036998 -0.15794727
-0.10035133 -0.40801427 0.21604675 -0.34339842 0.26192683 -0.018466324 0.32189357 -0.30060473
0.07032084 -0.100244 0.013968339 0.2878163 -0.027078073 0.31005514 0.289865 -0.26043776
0.3639885 0.34270033 -0.026942585 -0.25464657 -0.39332858 0.09059861 0.13796866 -0.11454657
-0.18648534 0.035392046 0.12527865 -0.3446784 -0.23098485 0.13467433 0.22299859 -0.22264594
-0.3647076 0.29015127 0.306424 0.30113304 -0.034848616 -0.300296 0.25675383 0.35627735
-0.28818578 -0.12634696 -0.0737826 -0.0044288114 -0.2368493 -0.06364409 0.27875853 -0.35702258
0.12787005 -0.13621478 -0.1645915 -0.1944838 -0.26314822 -0.07285341 0.22998226 0.42155868
-0.18227403 -0.14347228 -0.22731052 -0.40137005 0.2764409 -0.19423138 0.21779174 0.24174605

first_layer.bias f4 [32]
00000000: 6d50 333e cca0 4b3e ec6c 253e 0f3e 69be
00000010: 6a73 abbe b46c 41be bb8a c6be adbf 93be
00000020: 14e1 aebe a221 f5bd b158 d4be 205c c6bd
00000030: f512 143e 12cb 403e 3e09 07bd 321f cebe
00000040: 6a99 d93e 9617 253e 0e92 8cbc be0c e43b
00000050: cef9 9c3e 2cb3 b4be 432b ee3d ad87 05be
00000060: 2d1b 933e f06a e2bd c92b 843e 2490 2cbc
00000070: db78 493e 00e0 aebd 8be3 9c3e 8d92 5cbe
0.17511149 0.19885558 0.16154832 -0.2277758 -0.3348649 -0.18889123 -0.38777718 -0.28857175
-0.34156096 -0.119693056 -0.41473916 -0.0968554 0.14460357 0.18827465 -0.0329678 -0.40258175
0.42499858 0.16122279 -0.017159488 0.006959527 0.30659336 -0.35292947 0.11629345 -0.13040037
0.2873167 -0.11055553 0.25814655 -0.010532413 0.19675009 -0.08538818 0.30642352 -0.2154028

second_layer.weight f4 [32, 32]
00000000: 639f e1bd dc6b 61be 2500 cbbd b083 e23c
00000010: a8d8 0b3d 49b9 0c3e d92b 27be 7dd8 fdbd
00000020: ab93 0d3e 750b 5abe 784b ee3d e93a efbd
00000030: 1814 543e ac7c ddbd 0b07 263e b533 31be
00000040: d484 08be 9351 eebd b910 203e 9210 103e
00000050: 37c4 15be e835 d73c 0490 97bd 90e0 053d
00000060: 91b4 c2bd d8b0 ddbc 11cd 18bc 1b89 d53d
00000070: 7edf f33d 059d 643d ddc8 073d 9926 0a3e
00000080: 40e7 1f3d 1f81 4fbe 6cc7 56bc eaa8 33bc
00000090: 0093 f93b 1e17 923d c86c 0f3d dfc2 8abb
000000a0: f848 1a3e e68e 5abe 270a 5dbd 8f7c 30ba
000000b0: be6d 473e 350a 16be cdd3 ea3d 389c dabc
000000c0: 5100 57bd 7b71 aebd ae4f d6bd 1373 543e
000000d0: 85b9 77be 2eb1 c83d 525f 703e 6cb0 8dbd
000000e0: e26a 14be 7c4c efbd cbf1 2cbc 48a7 d63d
000000f0: 6255 78bd eec6 4abc 3438 4a3d 89b0 7bbd
00000100: 92d3 b73c 8f29 783e 3b36 8dbc 77b3 f5bd
00000110: ff38 033e ceb0 a13d 9db9 053e a569 823d
00000120: 16d5 3dbe 1954 8a3d 85e7 fc3c df9a 073d
00000130: 21bb 2abe abdb ca3c a7ce 12be 5e4b d63d
00000140: 23f1 8a3c 6ddb 13bd 2c3b 003e 9391 24be
00000150: 72cc 893c 4c2b 01be fbbd 4bbe 73ac 42bd
00000160: cf19 133e 06eb 31be ea12 823d cec7 c13d
00000170: 8154 4fbd 6664 15bc 23cd 12be 3f30 b8bd
00000180: a4e5 83be 658b e8bd 1a9b 543e 7963 903b
00000190: 6d69 093e 94a7 813d a139 10be b9cc 913d
000001a0: fa21 303d e4d2 543d 7851 f63d 10eb 32be
000001b0: 515d 2a3e 2886 613d a245 bf3d 68db b9bc
000001c0: 1b83 42be 9a32 20bd d42d 11be b53a df3c
000001d0: 2773 a8bd a1e5 01be c242 863d 145d 763e
000001e0: 687e c23d 8ded 003e 4f64 13be 447f 7dbd
000001f0: 3514 813d 4451 8e3c e9fd abbd e816 fdbd
00000200: dd9a a0bd d066 09bd 7969 4c3e de19 b4bc
00000210: 4830 323d 60cb cdbc 2961 2d3e 13d1 c53c
00000220: d190 6d3e 3ca4 7dbd 9c86 e93d 7963 af3b
00000230: f1fe 923b 487e 5ebe 74ad 943d ad49 05be
00000240: 3f07 c2bd b80f 1ebd fb3f 50be aab5 3d3e
00000250: 6f15 56be a0a4 59bc 6810 2abd 572e 6c3e
00000260: bf15 f0bd 86f3 fd3d 4a15 fe3d 2cb8 86bd
00000270: a34b 1fbe b244 613c 37bf 10be 999a 823d
00000280: a188 f33d 3fcd e7bc 64c4 893d 3b45 8bbe
00000290: 47c2 2c3e 36dc e83d d215 aa3d 263d a83d
000002a0: 0205 3c3d 5314 44bd eb60 c4bd e990 e0bd
000002b0: 2ae7 24be 313b 46bd 1ad1 f0bd 6890 91bc
000002c0: cc64 e73e 0e23 d93d ccb3 903d ab36 043d
000002d0: 03a3 8d3e 9c33 213d b7b3 d83c fcf3 48bd
000002e0: 4abc c1bd 0018 f2b9 cbc6 843a 7e15 013c
000002f0: 6823 a63d 86cf 3e3c a1a5 d43d 07a4 fc3d
00000300: af3b 82bd 1d5b b1be f21e ed3d 7ee4 17bd
00000310: 1077 3cbc eb88 1dbe 1a6e 03be 6fd9 123e
00000320: cd8d 4e3e e9be a63d 18dd e4bb 61e1 aabd
00000330: 3ea6 a8bd ee7c 913b dbcd 08bc 2ef8 fe3d
00000340: 9684 54bd 0fe6 a9bd 0360 133e 3690 1e3e
00000350: 828f 663d ecf6 29be 5885 a53d e9c9 0e3e
00000360: f420 32b9 4481 903d 4193 76bc 370b 973d
00000370: d33f 933b 0578 2f3e d6c7 7fbd 75ce e0bd
00000380: 53d7 c7bd 8cbc 49bd b0f8 5b3e be53 323e
00000390: 7e44 a53d 7314 89bd 285e eabc 9a50 04be
000003a0: 8886 2e3e 8bbd 92bc b1a3 c23d 0f77 94bd
000003b0: aac7 293d cbd6 babd 2141 553d 802c e8bd
000003c0: 7359 59be a7cc 0b3c 7b56 383e 648f bebc
000003d0: 4c04 38be 002b 0dba 8d5b 403e 6b25 5b3e
000003e0: 9b6d 093e 80d5 6c3b 7508 3cba 0ca0 d73d
000003f0: edfe 4bbe 0338 303e 4d82 153e b96e 213e
-0.11016729 -0.22013801 -0.09912137 0.027650684 0.034142166 0.13742556 -0.1632532 -0.123948075
0.13825862 -0.21293433 0.11635488 -0.11681158 0.2071079 -0.10814795 0.16213624 -0.17304881
-0.1333192 -0.11636653 0.15631379 0.14068821 -0.14625631 0.026270822 -0.07400516 0.032684863
-0.095070966 -0.027061865 -0.009326235 0.104265414 0.11907862 0.055813808 0.033150543 0.13491286
0.039038897 -0.202641 -0.013109069 -0.010965565 0.0076164007 0.071333155 0.03501585 -0.004234656
0.15066898 -0.21343574 -0.05396476 -0.0006732428 0.19475457 -0.14652331 0.11466179 -0.026685819
-0.052490536 -0.085177384 -0.104644164 0.20747022 -0.24191864 0.09799419 0.23473862 -0.069184154
-0.14493898 -0.1168451 -0.010555695 0.10481125 -0.060628302 -0.01237653 0.049370006 -0.061447654
0.022439752 0.24234603 -0.017237773 -0.11997121 0.12814711 0.07895051 0.13059087 0.06367806
-0.18538317 0.067543216 0.030872116 0.03310668 -0.16672947 0.024762949 -0.14336644 0.10463594
0.016960686 -0.036097933 0.12522572 -0.16071157 0.01682112 -0.12614173 -0.1989669 -0.04752774
0.14365314 -0.1737481 0.06351264 0.09461938 -0.0506177 -0.009118175 -0.14336066 -0.08993577
-0.2576114 -0.113547124 0.20762292 0.0044063893 0.13419123 0.06330791 -0.14084484 0.07119126
0.043001153 0.051958933 0.12027258 -0.17472482 0.1663716 0.055059582 0.09339453 -0.022687629
-0.18995325 -0.039110757 -0.14177638 0.027249673 -0.082250886 -0.12685253 0.06555702 0.24058944
0.09496766 0.12590618 -0.14393733 -0.061888948 0.06302682 0.017372735 -0.08398039 -0.12357885
-0.07842038 -0.033545315 0.1996211 -0.02198499 0.043503076 -0.02512139 0.16931595 0.024147546
0.23199774 -0.061924204 0.11402628 0.0053524342 0.004485958 -0.2172786 0.07259646 -0.13016386
-0.09474038 -0.03858921 -0.20336907 0.1852633 -0.20906614 -0.013283879 -0.041519552 0.23064552
-0.11722898 0.12399964 0.12406404 -0.06578097 -0.15556197 0.013749288 -0.14135443 0.063771434
0.11891294 -0.028296111 0.06726912 -0.27201256 0.16870986 0.11370127 0.08304943 0.08214788
0.045903213 -0.047870945 -0.09588798 -0.109651394 -0.16103807 -0.048396293 -0.11758633 -0.017769054
0.4519409 0.10602389 0.070655435 0.032278698 0.2766343 0.03935586 0.026452882 -0.049060807
-0.094597414 -0.00046175718 0.0010130046 0.007878659 0.08112222 0.011646157 0.10383154 0.12335973
-0.0635904 -0.34639826 0.11578168 -0.03708314 -0.011502996 -0.15384261 -0.12834969 0.14340757
0.2017128 0.08141882 -0.0069843642 -0.08343769 -0.08234833 0.0044399416 -0.008349861 0.1244968
-0.051884256 -0.08295833 0.14392094 0.154847 0.056289203 -0.165981 0.08082074 0.1394421
-0.00016987679 0.070559055 -0.0150497565 0.07375186 0.0044936924 0.17135628 -0.062446438 -0.109768786
-0.09757867 -0.049252078 0.21481586 0.17414758 0.080697045 -0.066933535 -0.02860935 -0.12921372
0.17043507 -0.017912647 0.09503878 -0.07249271 0.04145018 -0.09123 0.052064065 -0.11336613
-0.21225528 0.00853268 0.1800174 -0.023261733 -0.17970389 -0.00053851306 0.18784924 0.21400993
0.13420717 0.0036137998 -0.0007172891 0.105285734 -0.19921465 0.17208867 0.14600487 0.15764894

second_layer.bias f4 [32]
00000000: 741b c43d c27c 213e 0b13 18be 573d 343e
00000010: 01da 08bd 0519 68bd f776 7d3d 7bb4 d5bd
00000020: bf43 413c 9697 283e 568a aabd c5a6 b13d
00000030: e6cc ec3d e11c 9c3c fd75 89bd c3b4 453e
00000040: e218 09be e6fc ff3d 522f 2a3d 892c bf3d
00000050: 592e 0fbe df71 c83d a98b d63d aae5 45be
00000060: 1dcc 8cbd 46db 33be a0ed 1ebd 7aaa 9739
00000070: 5fef 0abe 8e37 313e cf2c ffbd d842 003e
0.09575549 0.15770248 -0.14851014 0.17601524 -0.03341103 -0.056664485 0.06188103 -0.104348145
0.011795937 0.16464075 -0.08327167 0.08674387 0.11562519 0.01905674 -0.067119576 0.19307236
-0.13388398 0.124994084 0.041549034 0.09334666 -0.13982524 0.09787344 0.10475857 -0.19325891
-0.06874869 -0.17564115 -0.038800836 0.0002892798 -0.13567875 0.17306349 -0.124597184 0.12525499

third_layer.weight f4 [2, 32]
00000000: 21d6 fabb 55ca 2d3e 8a23 05be 5030 463d
00000010: afcc b23d 1b78 833d 5284 023e d764 083e
00000020: e9fa 2b3d 0f06 b1bd db75 17be 6a56 b83d
00000030: 9598 78bd 5d77 12be 2cda 3f3e e1fe 903a
00000040: cbb6 3e3a d249 863d 6d3b b7bd 377b b83d
00000050: aada b3bb e0aa 353c a0a1 b2bc 0896 cabd
00000060: 0bab b8bd f980 7dbd 3afa 583d 5d1f a63c
00000070: edc4 b5bd 255a 793d 250e b2bd 7150 243e
00000080: a1d9 a53b 050d 223e c4af a8bd 73b3 293e
00000090: 3ac9 c43c 4793 febd 210b a7bd a34d 8d3d
000000a0: 02d1 793d 4c51 513d 6694 aabd 81f1 70bd
000000b0: 07d2 babd 9bb0 043d 8f19 d0bc ba1a 48bd
000000c0: 6801 a3bd 6d40 d0bc c585 aa3c 6ccf 02be
000000d0: be88 ae3d 992f abbd 0ecc 203e f772 0abe
000000e0: bcb2 173d 2e7a 38bd 22b2 5e3d fa7b 0b3d
000000f0: 4d20 26be 054b e73c d9a3 943d 3ec3 933d
-0.0076549207 0.16971715 -0.13001838 0.04838592 0.087304465 0.06419393 0.12745789 0.13319717
0.041987333 -0.08643734 -0.14791052 0.09000857 -0.06069239 -0.14303346 0.1873557 0.0011062288
0.0007275163 0.06557049 -0.089468814 0.09007876 -0.0054887133 0.011088103 -0.021805584 -0.098918974
-0.09016999 -0.061890576 0.05297301 0.020278627 -0.08875451 0.060876984 -0.08694104 0.16046311
0.005061344 0.15825279 -0.0823665 0.1657236 0.024021734 -0.12430435 -0.081564195 0.06899574
0.06099034 0.05110292 -0.08329086 -0.058824066 -0.09122091 0.032394987 -0.025402812 -0.048853613
-0.079592526 -0.025421346 0.02081574 -0.12774438 0.08522175 -0.08358688 0.1570284 -0.13520418
0.03703569 -0.045038395 0.0543691 0.03405378 -0.1622326 0.028234014 0.07257814 0.07214974

third_layer.bias f4 [2]
00000000: 0b67 993c 96f0 503e
0.018725893 0.20404276
