CSC4343/HW/hw2/name_generator.pt (torch, 870234 bytes, 10 tensors)

lstm1.weight_ih_l0 f4 [512, 28]
0	0xc0273f3c	-2.6132345
1	0xc060e05b	-3.5136936
2	0xbfaec67e	-1.3654325
3	0xbe28cdbd	-0.16484733
4	0xbeb34fbd	-0.35021773
5	0xc00f61da	-2.2403474
6	0x3fb93683	1.4469761
7	0x3f157c5e	0.58392894
8	0xbf42205f	-0.75830644
9	0xbf8123cd	-1.008905
10	0xbe73b051	-0.23797728
11	0xc0083cac	-2.128703
12	0xc0027121	-2.0381548
13	0x404499bd	3.0718834
14	0x3f61aff8	0.8815913
15	0x3fae0b55	1.3597208
16	0xc004ba57	-2.0738733
17	0x3fd98f61	1.6996881
18	0x407a46d6	3.9105735
19	0xc0522581	-3.283539
20	0x3f948dd6	1.1605785
21	0xbefce21d	-0.4939126
22	0x3fb5cb86	1.4202735
23	0xc012c5e5	-2.2933285
24	0x3ff19b25	1.8875471
25	0xc02e0a24	-2.719369
26	0xc01b3896	-2.4253287
27	0x3da45893	0.08024707
28	0xbf196546	-0.59920156
29	0xbf931d76	-1.1493366
30	0xbfafd899	-1.3737975
31	0xbf263b61	-0.64934355
32	0x400ad0ad	2.1689866
33	0xc0255b69	-2.5837042
34	0xc0816f31	-4.044823
35	0xbfc5f6f5	-1.546599
36	0x3ef90ddb	0.48643383
37	0xbf8eb542	-1.1149065
38	0x3fb19b1b	1.387546
39	0xbed8545d	-0.42251864
40	0xbe895314	-0.26821196
41	0xbf68d530	-0.909503
42	0x3fd9a9d1	1.7004949
43	0xbfc2a4ac	-1.5206504
44	0x400c947d	2.196563
45	0xbf935d28	-1.1512804
46	0xbfafa0b1	-1.3720914
47	0x3ed095b7	0.40739223
48	0x3fb97d21	1.4491311
49	0xbfa39de6	-1.2782562
50	0xbe01933c	-0.12653822
51	0x3e8d8dd1	0.2764726
52	0xc00baf0c	-2.182559
53	0xbcc8f37f	-0.02453017
54	0xc02d1080	-2.704132
55	0xbd7f33a9	-0.062305126
56	0x3e437010	0.19085717
57	0xbf13a569	-0.5767427
58	0x3f3c17b3	0.7347366
59	0xbf2a9e84	-0.66648126
60	0xbf6f8162	-0.935568
61	0xc0b36523	-5.606096
62	0xbab877c7	-0.0014073782
63	0x3e0570d2	0.13031319
64	0xbdbc860c	-0.09205255
65	0xc0572e71	-3.3622096
66	0x3e9c0184	0.30469906
67	0xbf4de848	-0.8043256
68	0x3dbdeab7	0.09273284
69	0xc01d738b	-2.4601772
70	0x3f8892e5	1.0669829
71	0x3f24c237	0.6435885
72	0xbf7ee0b3	-0.99561614
73	0xbf82910d	-1.0200516
74	0xbfa0027d	-1.2500759
75	0x3e0866fc	0.13320535
76	0xbff4b2bd	-1.9117047
77	0x3e8eebf2	0.27914387
78	0x4005d4fc	2.0911245
79	0x40523356	3.2843833
80	0x3fb5ec1c	1.421268
81	0xbe8f367a	-0.2797125
82	0xbe27ddf7	-0.16393267
83	0xbc8b6f70	-0.017020911
84	0xbfaf3d06	-1.3690498
85	0xbfdb9ff1	-1.7158185
86	0x3f7ec9b8	0.9952655
87	0xbf42e1b6	-0.7612566
88	0xbe2114a4	-0.1573053
89	0xbe0cf71f	-0.13766144
90	0xbeb34d32	-0.35019833
91	0x401d5ecb	2.4589107
92	0x3e87ea33	0.26545867
93	0x3e4196b4	0.18905145
94	0xc025d1d7	-2.5909326
95	0xbfb43ec9	-1.408166
96	0x402b134f	2.6730535
97	0xbf4e0ed4	-0.80491376
98	0xbfbdb60b	-1.482118
99	0xbff7bdea	-1.9354832
100	0x3f9becca	1.2181637
101	0x3f461993	0.77382773
102	0xbf32da2c	-0.69864154
103	0x400f9bbe	2.2438807
104	0xc0578924	-3.3677454
105	0xbf3479a8	-0.7049813
106	0xbf6aa48d	-0.91657335
107	0x3e7f4b3a	0.2493104
108	0xc04c079c	-3.1879644
109	0x3f06a08f	0.5258874
110	0x3e48aae8	0.19596446
111	0xbd701cc0	-0.058621168
112	0xbe4fabc0	-0.20280361
113	0xc06cf8cd	-3.7026856
114	0x3e7ccabc	0.24686712
115	0xbfc3903a	-1.527839
116	0xbf7c9a41	-0.9867287
117	0xbffd2f9f	-1.9780158
118	0x3d809162	0.062777296
119	0xc013295b	-2.2993991
120	0x3ea3b048	0.3197043
121	0xc03930bb	-2.8935993
122	0xbf6c58c4	-0.92322946
123	0x3f832ceb	1.0248083
124	0x3f9ddeec	1.2333655
125	0x3f5d3cb5	0.86420757
126	0xbf896e72	-1.073683
127	0xc0393969	-2.894129
128	0x3eb890cd	0.36047974
129	0x3d14e87c	0.036354527
130	0xc03a01cb	-2.9063594
131	0x3f794f1d	0.9738634
132	0x3f6f8dda	0.93575823
133	0xc012e43a	-2.2951798
134	0x3d8af2a7	0.067845635
135	0xbf149e9f	-0.58054537
136	0xbfe04aff	-1.7522887
137	0x404a4906	3.160707
138	0xbfb5a253	-1.4190162
139	0xbdaa290e	-0.08308612
140	0x3ecf1e72	0.40452915
141	0xc02145aa	-2.519877
142	0x3fd32452	1.6495459
143	0xbf4f11f0	-0.80886745
144	0x3ffe378c	1.9860702
145	0xc00f7009	-2.241213
146	0xbf2af3c1	-0.6677819
147	0x3f857be4	1.0428433
148	0x404a7f17	3.164007
149	0xbe64eab2	-0.22355154
150	0x3facd85a	1.3503525
151	0xbeed3624	-0.4633037
152	0xbd84da6c	-0.06486973
153	0xbfb2d300	-1.3970642
154	0x3f4bde2a	0.7963587
155	0x40698bd7	3.6491601
156	0x3ecb03e9	0.3965142
157	0x40144965	2.3169796
158	0x3fa813e8	1.3131075
159	0xc00fa556	-2.2444663
160	0xbf7fe5e6	-0.9996017
161	0x4059b327	3.4015596
162	0x400e3bd2	2.2224011
163	0xc0202781	-2.5024111
164	0xbf04eb69	-0.5192171
165	0x3fc3ade7	1.5287446
166	0x4009fb7c	2.1559744
167	0xbd853e68	-0.06506044
168	0xc03faa3f	-2.994766
169	0x3ee6692f	0.45002124
170	0xc02c946e	-2.6965594
171	0xbfe0d395	-1.756457
172	0xbe0b144b	-0.1358196
173	0x3fea9c28	1.8328905
174	0xc02b357c	-2.6751394
175	0x4025393b	2.581618
176	0xbfdc9cda	-1.7235367
177	0xbef5d7e1	-0.48016265
178	0x3f58e3a7	0.8472237
179	0x3e45cbc6	0.19316015
180	0xbe93afae	-0.2884497
181	0xc00314d1	-2.0481455
182	0x3f00aadb	0.50260705
183	0xbfa15ed6	-1.2607067
184	0x3f8abe2c	1.0839286
185	0x3fbf5122	1.4946635
186	0xc02f4b43	-2.7389686
187	0xc0207aed	-2.5075028
188	0x3f36db72	0.71428597
189	0x3fb62412	1.4229758
190	0xbf1cce6a	-0.6125246
191	0x3f5837d5	0.8446019
192	0xbd520512	-0.051274367
193	0x3e84cb79	0.25936487
194	0xc001be49	-2.027239
195	0x3da28877	0.07936185
196	0xc076be01	-3.855347
197	0xbfe84e34	-1.8148866
198	0xc061b0f3	-3.5264251
199	0xc03a86f6	-2.9144874
200	0x3dd618f4	0.10453978
201	0xbff295fb	-1.895202
202	0xc02268b1	-2.5376399
203	0xbea8c202	-0.32960516
204	0xc04634d5	-3.0969746
205	0xbf4393a9	-0.76397187
206	0xc03516d7	-2.829519
207	0xbf180ca0	-0.59394264
208	0xbf828ab3	-1.0198578
209	0xbf815f3a	-1.0107186
210	0xbfa24270	-1.2676525
211	0xc008c685	-2.1371167
212	0xc02ba12d	-2.6817124
213	0xbfa5c27f	-1.294998
214	0xc00d30c5	-2.2061017
215	0xbfbb9ed7	-1.4657849
216	0xbebce8dc	-0.36896408
217	0xbfcce372	-1.6006911
218	0xbec7bf9b	-0.3901337
219	0xc0647053	-3.5693557
220	0xbe9b09c0	-0.30280876
221	0xbd6d79dd	-0.057977546
222	0xbf45b98c	-0.7723625
223	0xbd8ff877	-0.07029813
224	0xbf68cb4e	-0.9093522
225	0x3f0f35cf	0.5594148
226	0x3f5f9bcf	0.8734712
227	0x3f22cba6	0.6359199
228	0x3f89d4d1	1.0768071
229	0x3fad11cf	1.352106
230	0x3fb557d9	1.4167434
231	0x3e6080f7	0.21924196
232	0x3e7bd0d1	0.24591376
233	0x3f50925a	0.81473315
234	0x3ef86381	0.48513415
235	0x3f3ff6ff	0.7498626
236	0x3f230b92	0.6368953
237	0x3fadc92f	1.3577021
238	0x3f681b15	0.90666324
239	0x3f8b6466	1.0890014
240	0xbde47969	-0.1115597
241	0x400970b2	2.1475034
242	0x3f9291db	1.1450762
243	0x3fd54c8a	1.6663983
244	0x3f272a10	0.6529856
245	0x3f0d9d40	0.5531807
246	0x3f92cf9f	1.1469611
247	0x3ffd111f	1.977085
248	0x3f775231	0.9660979
249	0x3f6db5b3	0.92855376
250	0xbe173d0d	-0.14769383
251	0xbc1dce70	-0.009631738
252	0xc0e98401	-7.2973638
253	0xbf86be62	-1.052685
254	0x3f495e70	0.78659725
255	0x401810dc	2.376029

lstm1.weight_hh_l0 f4 [512, 128]
0	0xbf44b910	-0.7684488
1	0xbf5f0142	-0.87111294
2	0xbf0af279	-0.54276234
3	0xbfa7bf34	-1.3105226
4	0xbe8fc7cb	-0.28082117
5	0x3e4acb96	0.19804224
6	0xbe09f2c3	-0.13471512
7	0xbf705621	-0.9388142
8	0x40148f33	2.3212402
9	0xbfaad3cd	-1.3345886
10	0x3fc158de	1.5105245
11	0xc00a2b19	-2.1588805
12	0xbe851f9b	-0.26000676
13	0xbfcf3b0d	-1.6189896
14	0xbf11075f	-0.5665187
15	0x40336457	2.8029993
16	0x3f0c6e30	0.5485563
17	0x3d351296	0.044207178
18	0x400ee992	2.233006
19	0x3fa3416c	1.275434
20	0xbec8328c	-0.39101064
21	0x3f321fa9	0.6957956
22	0x3fab31f5	1.3374621
23	0xbfc8c691	-1.5685598
24	0xbfdc1faa	-1.7197163
25	0x3d83d6a7	0.06437426
26	0xbf9a2dcb	-1.2045225
27	0xbea18533	-0.31546935
28	0x3e8ef56b	0.27921614
29	0x3dc5bb79	0.09654898
30	0x3f09936d	0.5374058
31	0xbee882b9	-0.45412233
32	0x4000aeca	2.0106683
33	0x3f07e591	0.53084666
34	0x3deba4a3	0.11506011
35	0xbc0e20ed	-0.008674842
36	0xbf09b51a	-0.53791964
37	0x3ff900d6	1.945338
38	0xbf1c8284	-0.6113665
39	0xc052247f	-3.2834775
40	0xc0097446	-2.1477218
41	0x3f10344f	0.56329817
42	0xbeef2fef	-0.46716258
43	0xbd904f6d	-0.07046399
44	0x3fe7f116	1.8120449
45	0x3f7d1b12	0.9886943
46	0xbfd96c1e	-1.698612
47	0xc01bdcea	-2.4353585
48	0xbf1b63d1	-0.6069918
49	0xbf237b8a	-0.6386038
50	0x3fc6b685	1.552445
51	0x3fc7248c	1.5558028
52	0x3f0bedd9	0.546598
53	0xbfe771d3	-1.8081611
54	0xbe45ffc5	-0.1933585
55	0xbb47c3dd	-0.0030481734
56	0x3e69ef55	0.22845204
57	0xbf82b1b1	-1.0210477
58	0xbf93c3fd	-1.1544186
59	0xbe48a18c	-0.19592875
60	0xbfb49eac	-1.4110923
61	0x3f12bf41	0.5732308
62	0xbf1ce199	-0.61281735
63	0xbe84136e	-0.25796074
64	0x3eb42c47	0.3519003
65	0xbff2c84d	-1.8967377
66	0xbf14e3d6	-0.5816015
67	0xc00f49c4	-2.2388773
68	0xbfbe63cd	-1.4874207
69	0xbfe20994	-1.7659173
70	0xbe30ba7a	-0.17258635
71	0x3d4b264a	0.049597062
72	0x3f87c01f	1.0605506
73	0xbd9d7cce	-0.0768982
74	0x3e0e7070	0.13910079
75	0x3fbdca28	1.4827318
76	0x3f2095e3	0.6272871
77	0xbf719afa	-0.943771
78	0x3f749eaf	0.9555463
79	0x3ece2a61	0.40266708
80	0x3f1fbffc	0.6240232
81	0xbe2c2180	-0.16809654
82	0xbf2770de	-0.65406597
83	0x3f7aa8d7	0.9791388
84	0xbf4a97e0	-0.7913799
85	0xbef3dc84	-0.47629178
86	0xbf72004a	-0.9453169
87	0xbfc171da	-1.511287
88	0xbf94e5e8	-1.1632662
89	0xbe57546b	-0.21028297
90	0x3f95e0a7	1.1709183
91	0x400889a7	2.1334016
92	0xbf6df84a	-0.92956984
93	0xbe2884a9	-0.16456856
94	0x3efb221f	0.4904947
95	0x3ef99ecc	0.48753965
96	0xbfc49297	-1.5357236
97	0x3fd281e5	1.6445891
98	0xbfdf5713	-1.7448448
99	0xbf616b04	-0.8805392
100	0x3f04a68c	0.5181663
101	0x3f950b21	1.1644021
102	0xbe7022c7	-0.23450767
103	0x3f98d439	1.1939765
104	0xbf9aa9c8	-1.2083063
105	0xbefe730a	-0.49697143
106	0xbff99ab6	-1.9500339
107	0x3ebecba6	0.37264746
108	0xbf484651	-0.78232294
109	0x3f9af0b5	1.2104708
110	0xbf60e23a	-0.87845194
111	0xbe171ec6	-0.14757833
112	0x3e08f4d5	0.13374646
113	0x3dcc8191	0.0998565
114	0xbf8d68a5	-1.104756
115	0x3f451590	0.76986027
116	0x3f9595b3	1.168631
117	0xbf20cb61	-0.6281033
118	0xbd81ebcb	-0.06343802
119	0x3f3bdac0	0.7338066
120	0xbe493d00	-0.19652176
121	0x3d478e21	0.04871953
122	0x3f842877	1.0324849
123	0x3fa07f54	1.2538857
124	0x3fad354a	1.3531888
125	0xbd88eb45	-0.06685499
126	0x3f37f75c	0.71861815
127	0xbfccb896	-1.5993831
128	0xbf64c620	-0.89364815
129	0xbf2e8a8e	-0.6818017
130	0x3f697965	0.9120086
131	0xbf50f247	-0.81619686
132	0xc01481ec	-2.3204298
133	0x3e82e2a0	0.25563526
134	0xc00eac17	-2.2292535
135	0xbf018b8e	-0.5060357
136	0x401b69fa	2.4283433
137	0x3dac6ade	0.08418821
138	0xc0177676	-2.3666053
139	0x3fcbc934	1.5920777
140	0x3cf6d6c3	0.030131703
141	0xbf71b229	-0.94412476
142	0x3e0363c5	0.12831028
143	0x3f62438c	0.8838432
144	0x3f083582	0.53206646
145	0xbf49fd75	-0.7890237
146	0xbfead74f	-1.8346957
147	0x3fd69c0c	1.6766372
148	0x3f0cc1fd	0.549835
149	0x401b58a9	2.4272864
150	0x40138ad3	2.3053482
151	0x40250ede	2.5790324
152	0xbf217805	-0.6307376
153	0xc029f8fa	-2.6558213
154	0xbe04ad2a	-0.12956682
155	0x3fc37014	1.5268579
156	0xbfc6a5b6	-1.5519321
157	0x3eb3e2ed	0.35134068
158	0xc02c2586	-2.6897902
159	0x3fa5e23f	1.295967
160	0xbf9fa710	-1.2472858
161	0x3f895bb0	1.0731106
162	0xbfa7fb5f	-1.3123587
163	0xbf5cf6a6	-0.86313856
164	0xbee06c6d	-0.43832722
165	0x3ed9db7a	0.4255026
166	0x3f1b6afb	0.60710114
167	0xbf7bb188	-0.98317766
168	0xbbec4c9a	-0.00721128
169	0xbff184df	-1.8868674
170	0x3f191a1d	0.5980547
171	0x3f2ab87a	0.6668774
172	0xbea63dee	-0.32469124
173	0x3f1a28d4	0.6021855
174	0x3f734325	0.9502433
175	0x402d25a0	2.7054214
176	0xc0249e9d	-2.572181
177	0x3f073e9f	0.5282993
178	0xbf6a3003	-0.9147951
179	0x3f870730	1.0549068
180	0xbf0f83af	-0.5606031
181	0xbfc21e13	-1.5165428
182	0xbde57c02	-0.11205293
183	0xbe805108	-0.25061822
184	0xbf3ec58a	-0.7452017
185	0xbf35aea3	-0.709696
186	0xc00463bd	-2.0685875
187	0x3e5f3eb2	0.2180126
188	0xbe1bf882	-0.15231517
189	0x3dd9b58e	0.10630332
190	0xc0045e31	-2.068249
191	0xc04834b6	-3.1282172
192	0xbeff2929	-0.4983609
193	0xbfb238ec	-1.3923621
194	0x3f853f7f	1.0410002
195	0xbfa213dc	-1.2662311
196	0xbf74346e	-0.953925
197	0xbf904bad	-1.1273094
198	0x3eee83e3	0.46584997
199	0x4020a21d	2.5098946
200	0x400b24c1	2.1741183
201	0xbfa07666	-1.2536132
202	0xbf618d02	-0.88105786
203	0x3f546ee4	0.82981706
204	0x3f2c784d	0.67371064
205	0xbe631dc3	-0.22179322
206	0x3f0238ef	0.50868124
207	0x3eb733d7	0.35781738
208	0xc019f158	-2.4053555
209	0xbe0765aa	-0.13222376
210	0xc03e9cb7	-2.978315
211	0x4003269d	2.0492318
212	0x3fa552fb	1.2915949
213	0xc064aeb3	-3.5731628
214	0xc0087768	-2.132288
215	0xbeb6fdd6	-0.35740536
216	0xbf57aefc	-0.8425138
217	0x3fd98a48	1.6995325
218	0xbecfa50e	-0.40555614
219	0xbeebd0a9	-0.46057633
220	0xbf801ef5	-1.0009447
221	0xbe566306	-0.20936212
222	0xbe2dd66c	-0.16976327
223	0x3ed6c44d	0.4194664
224	0xbf3db3c6	-0.7410244
225	0x3fb69bcf	1.4266299
226	0xbf8df45c	-1.1090198
227	0x3eab421d	0.33448878
228	0x3f56c8c2	0.8390008
229	0x3fa99b58	1.3250532
230	0x400d30fe	2.2061152
231	0x3df19b47	0.11797195
232	0xbec74e8f	-0.38927123
233	0xbd1b97c4	-0.03798653
234	0xc001fa43	-2.0308998
235	0x3cd218fb	0.025646677
236	0xbca0d18f	-0.019631175
237	0x3f453782	0.77037823
238	0xbf186d7d	-0.59542066
239	0x400336a4	2.05021
240	0x40461239	3.0948622
241	0xbf5b0c36	-0.8556551
242	0xbfcc977a	-1.5983727
243	0xbc19adbb	-0.0093797995
244	0xbfcd2eb2	-1.6029875
245	0xbedb4192	-0.42823464
246	0x3f02349c	0.50861526
247	0x3fcbae24	1.5912519
248	0xbfad7961	-1.3552667
249	0xbfab8ee5	-1.3402983
250	0x403a959e	2.915382
251	0xbc92f8bf	-0.017940877
252	0x3f0b0743	0.54307956
253	0xc02d4dc5	-2.7078717
254	0xc04e947d	-3.227813
255	0xbf16530c	-0.5872047

lstm1.bias_ih_l0 f4 [512]
0	0xbf36bc59	-0.71381146
1	0xbfab97f3	-1.3405746
2	0xbe01aa57	-0.12662636
3	0xbe923d58	-0.28562427
4	0xbea22157	-0.3166606
5	0xbfb835c3	-1.4391407
6	0xbf979fb5	-1.1845614
7	0xbf204122	-0.62599385
8	0xbf8ffcbe	-1.1249006
9	0xbe1abd1f	-0.15111206
10	0xbf65396e	-0.89540756
11	0xbe3e4349	-0.18580355
12	0xbf34cbe9	-0.7062364
13	0xbf8b1bda	-1.0867875
14	0xbf1c8270	-0.6113653
15	0xbf55ae2d	-0.83468896
16	0xbf804d7d	-1.0023648
17	0xbe9af7ec	-0.30267274
18	0xbeee8c56	-0.46591443
19	0xbf510888	-0.8165364
20	0xbf766e4e	-0.9626206
21	0x3ec4a002	0.38403326
22	0xbf7785df	-0.96688646
23	0xbfab1bd4	-1.3367867
24	0xbf907189	-1.1284648
25	0xbf2d54a8	-0.677073
26	0xbf45f361	-0.7732449
27	0xbee56467	-0.44803163
28	0xbf10aa31	-0.5650969
29	0xbf9c0fcc	-1.2192321
30	0xbf31ce62	-0.6945554
31	0xbda9a8a1	-0.082841165
32	0xbfd09982	-1.6296847
33	0xbf954a3e	-1.1663282
34	0xbe0e156a	-0.13875356
35	0xbbffbb6a	-0.007804324
36	0xbef1caa7	-0.47224924
37	0xbf4c8337	-0.7988772
38	0xbef79b82	-0.4836083
39	0xbf264e36	-0.6496309
40	0xbf606eb6	-0.8766893
41	0xbf980f88	-1.187974
42	0xbf421101	-0.75807196
43	0xbe83ef47	-0.25768492
44	0xbf4cc1d6	-0.7998327
45	0xbf25cec6	-0.64768636
46	0xbf19d2c5	-0.60087234
47	0x3d170f1a	0.036879636
48	0xbf4a58f9	-0.7904201
49	0xbfa0df34	-1.2568116
50	0xbf785773	-0.97008437
51	0xbfbb6ed4	-1.4643197
52	0xbfb0ec87	-1.3822182
53	0xbf258ea7	-0.64670795
54	0xbf83daf3	-1.0301193
55	0xbf3e6fa2	-0.7438909
56	0xbf77115d	-0.9651087
57	0xbf807b7e	-1.0037687
58	0xbc1dd1ed	-0.00963257
59	0x3d0a069c	0.03369771
60	0xbfca3692	-1.5797904
61	0xbf298e57	-0.6623282
62	0xbf38315e	-0.7195033
63	0x3efa81d5	0.4892718
64	0xbfa10f1b	-1.2582735
65	0xbe7e8e4a	-0.24858966
66	0xbf8a7e9a	-1.0819886
67	0xbfb60548	-1.4220362
68	0xbf473f37	-0.77830833
69	0xbebb9ef2	-0.36644703
70	0xbebf81d4	-0.37403738
71	0xbf824350	-1.0176792
72	0xbf30bc9f	-0.6903781
73	0xbf9524ea	-1.165189
74	0xbf94c8b3	-1.1623749
75	0xbf81bd32	-1.0135863
76	0xbfb7ddf5	-1.4364611
77	0xbf638ab7	-0.8888354
78	0xbf0b6c5b	-0.5446221
79	0xbfa5999d	-1.2937504
80	0xbf867d22	-1.0506938
81	0xbf21f5d4	-0.6326573
82	0xbf6ad460	-0.9173031
83	0xbfa5d7dd	-1.2956501
84	0xbd897d25	-0.067133226
85	0xbf9b7a60	-1.2146721
86	0xbf712338	-0.94194365
87	0xbfb9695c	-1.4485278
88	0x3f2d11e6	0.67605436
89	0x3d8e43b0	0.06946504
90	0xbf7723ef	-0.96539205
91	0xbf6ba794	-0.9205258
92	0xbf7f7cc6	-0.99799764
93	0xbfaf29b6	-1.3684604
94	0xbee49dbe	-0.44651598
95	0x3bafe421	0.0053677713
96	0xbfb40add	-1.4065815
97	0xbeba25ba	-0.36356908
98	0xbf5a4492	-0.8526088
99	0xbf7d1974	-0.98866963
100	0xbf3446b9	-0.70420414
101	0xbedf6ea5	-0.43639103
102	0xbfb8561b	-1.4401277
103	0xbf9c8713	-1.2228721
104	0xbfb83277	-1.4390401
105	0xbf8a4f03	-1.0805362
106	0xbf325511	-0.6966105
107	0x3f2f2f74	0.6843178
108	0xbf598c85	-0.8498004
109	0x3e22ac24	0.15885979
110	0xbf0e970a	-0.5569922
111	0xbf682ab4	-0.9069016
112	0xbf6da4f3	-0.9282982
113	0x3ef30d37	0.4747102
114	0x3f13065d	0.57431585
115	0xbe566130	-0.20935512
116	0xbfd62cba	-1.67324
117	0xbf93b58c	-1.1539779
118	0xbf638e8a	-0.8888937
119	0xbf19921e	-0.5998858
120	0xbf7af421	-0.9802876
121	0xbee6e475	-0.45096174
122	0xbf964d13	-1.1742271
123	0xbf8ce542	-1.1007464
124	0xbf60bbfa	-0.8778683
125	0xbf24cb77	-0.6437296
126	0xbf99cb57	-1.2015179
127	0xbfa4e979	-1.288375
128	0xbf933e22	-1.1503336
129	0x3ed032cc	0.40663755
130	0xbf196599	-0.5992065
131	0xbf595bad	-0.8490551
132	0xbf1c9bef	-0.61175436
133	0x3f00162f	0.5003385
134	0xbf8c4c84	-1.0960851
135	0x3e5d7dcf	0.21630023
136	0x3e7c20ce	0.24621889
137	0x3fdc117a	1.7192833
138	0x3ffe9dc1	1.9891893
139	0xbdad969d	-0.08475993
140	0x3f26ef16	0.65208566
141	0x3e15e2d7	0.14637314
142	0xbf5638e6	-0.8368057
143	0xbedb464f	-0.4282708
144	0x3ec466d7	0.3835971
145	0x3f278e4f	0.6545152
146	0x3fa9595e	1.3230398
147	0x3ea65bc2	0.3249188
148	0xbdce4b71	-0.10072983
149	0x4022e5bf	2.5452726
150	0xbf45398e	-0.77040946
151	0x3f1e355b	0.61800164
152	0x3e8cbc05	0.27487198
153	0x3fb6d1d5	1.4282786
154	0x3fa3f9f1	1.2810651
155	0x3e51f8b6	0.20505032
156	0x3fcc3e00	1.5956421
157	0xbdf03225	-0.11728314
158	0x3f8601bd	1.046928
159	0xbf6e3d70	-0.93062496
160	0x3f05ce05	0.52267486
161	0x3e976d73	0.2957569
162	0xbf564908	-0.83705187
163	0x3fff2e39	1.9935981
164	0x3f737957	0.95107025
165	0x3e12e490	0.14345002
166	0x3fbcd6af	1.4753016
167	0x3e81c15d	0.25342837
168	0x3e820f0b	0.25402102
169	0xbe3d0206	-0.18457803
170	0xbfa2e356	-1.2725627
171	0xbeaa63a3	-0.33279142
172	0xbf188ccf	-0.59589857
173	0x3f815358	1.010356
174	0x3e0f6a36	0.1400536
175	0xbffeacb6	-1.9896457
176	0xbdd6b8cf	-0.10484468
177	0x3e949376	0.29018754
178	0xbda95299	-0.082677074
179	0x3f53e38a	0.8276907
180	0x3f98f86c	1.1950812
181	0x400b1266	2.172998
182	0x3ed2cf5b	0.41173825
183	0xbebe0633	-0.37114105
184	0x3e87a10d	0.2649006
185	0x3ddfd48f	0.10929214
186	0x3f38d3ac	0.72197986
187	0xbe79424d	-0.24341698
188	0x3f5dd91c	0.8665941
189	0xbefd1bf6	-0.49435395
190	0xbf3f859b	-0.7481324
191	0x3faca8cf	1.3489016
192	0x3f122677	0.5708994
193	0xbdce4b92	-0.10073008
194	0x3e4da0eb	0.20080917
195	0xbe165ac9	-0.1468307
196	0x3fa27ecc	1.2694945
197	0xbebb4123	-0.36573133
198	0x40012ec6	2.0184798
199	0x3f30dd2b	0.69087476
200	0x3f11d229	0.56961304
201	0x3f46dd09	0.7768102
202	0x40007083	2.0068672
203	0x3fb7bd90	1.4354725
204	0x3f3157e0	0.6927471
205	0x3f6ef9f1	0.9335013
206	0xbd4c135c	-0.04982315
207	0xbd3c4a97	-0.045969572
208	0xbef1960f	-0.47184798
209	0x402594b7	2.5872018
210	0xbefa59f3	-0.4889675
211	0x3ee82eec	0.453483
212	0xbf976415	-1.1827418
213	0x3d9cbcc0	0.07653189
214	0xbe404dd5	-0.1877969
215	0x3ed7f6d5	0.42180505
216	0xbe98944e	-0.29800647
217	0xbf68ad2f	-0.9088926
218	0x3f6795e3	0.90463084
219	0x4011ef39	2.280226
220	0xbea9d90f	-0.33173415
221	0x3e87c00d	0.2651371
222	0x3fd197a9	1.6374408
223	0xbfb79ec0	-1.4345322
224	0x3e7954e7	0.24348794
225	0x3e74d368	0.2390877
226	0x3d0fa9e3	0.035074126
227	0xbf012742	-0.5045053
228	0xbf3a8680	-0.7286148
229	0xbed28200	-0.41114807
230	0xbea70ae5	-0.326255
231	0x4003d303	2.0597541
232	0x3fd7f411	1.6871358
233	0xbf854f57	-1.0414838
234	0x3f493f20	0.78611946
235	0x3dbebce7	0.09313374
236	0xbe04ae0c	-0.12957019
237	0xbfbb4cb5	-1.4632784
238	0xbf17ecb4	-0.59345555
239	0x3f3efc9d	0.7460421
240	0xbf5397b6	-0.8265337
241	0x3f134bf9	0.575378
242	0xbf8243bf	-1.0176924
243	0xbfac0aff	-1.3440856
244	0x3d353609	0.044240985
245	0xbca42918	-0.020039126
246	0xbe94e2bf	-0.29079244
247	0x3ea60659	0.32426718
248	0xbe3397d2	-0.17538384
249	0xbfed03d7	-1.8516797
250	0x3e934222	0.28761393
251	0xbf536820	-0.8258076
252	0xbfd31cfd	-1.6493222
253	0x3eb6dff2	0.35717732
254	0xbf030221	-0.51175123
255	0xbe873057	-0.26404068

lstm1.bias_hh_l0 f4 [512]
0	0xbf3adf7c	-0.7299726
1	0xbfa2119d	-1.2661625
2	0xbe56c314	-0.20972854
3	0xbe5fa4ac	-0.21840161
4	0xbe33ade3	-0.17546801
5	0xbfa8fa65	-1.3201414
6	0xbf9ac0cc	-1.2090087
7	0xbf13bd65	-0.5771087
8	0xbf85a5e4	-1.0441251
9	0xbe804c5b	-0.25058255
10	0xbf6a614a	-0.915547
11	0xbdb4f83c	-0.088364094
12	0xbf295d95	-0.6615842
13	0xbf880f77	-1.062972
14	0xbf3f7ab7	-0.74796623
15	0xbf69ca7b	-0.91324586
16	0xbf81bccd	-1.0135742
17	0xbece4bc1	-0.4029217
18	0xbf17cb05	-0.5929416
19	0xbf4bbf28	-0.79588556
20	0xbf63e28f	-0.89017576
21	0x3eba5c2e	0.36398453
22	0xbf61a3a8	-0.88140345
23	0xbf96d2de	-1.1783102
24	0xbfa46080	-1.284195
25	0xbf2839f1	-0.6571341
26	0xbf4033fc	-0.7507932
27	0xbf102b52	-0.563161
28	0xbf32f9dd	-0.6991251
29	0xbf9efa22	-1.2420084
30	0xbf3223ad	-0.69585687
31	0x3c23272a	0.009958068
32	0xbfc82675	-1.5636736
33	0xbf993eb2	-1.1972258
34	0xbd89b16e	-0.06723295
35	0x3cfd1e2b	0.030898174
36	0xbeca16c7	-0.39470503
37	0xbf26924b	-0.65066975
38	0xbf0a2066	-0.53955686
39	0xbf027f5e	-0.50975597
40	0xbf6edd7f	-0.93306726
41	0xbf908235	-1.1289736
42	0xbf3c96c6	-0.7366756
43	0xbe7ccc2a	-0.24687257
44	0xbf33a5f2	-0.7017509
45	0xbf2e50f6	-0.68092287
46	0xbf1f2a91	-0.62174326
47	0x3cd37e65	0.025817106
48	0xbf4f7a47	-0.81045955
49	0xbf9b61e0	-1.2139244
50	0xbf718eee	-0.9435872
51	0xbfaa27aa	-1.3293355
52	0xbfa36d30	-1.2767696
53	0xbf3bdbfb	-0.7338254
54	0xbf83b1b9	-1.0288612
55	0xbf3d6f26	-0.73997724
56	0xbf637eef	-0.8886556
57	0xbf8a4774	-1.0803056
58	0xbe2d6d5c	-0.16936249
59	0x3d82b528	0.06382209
60	0xbfbfe1a9	-1.4990741
61	0xbf2392db	-0.6389596
62	0xbf3f99aa	-0.7484385
63	0x3ee042a1	0.43800834
64	0xbf9378c4	-1.152123
65	0xbe612500	-0.2198677
66	0xbf92b942	-1.1462786
67	0xbfb66b61	-1.425152
68	0xbf2750f4	-0.653579
69	0xbef50afe	-0.4785995
70	0xbeccb4f3	-0.39981803
71	0xbf76739a	-0.96270144
72	0xbf36293f	-0.71156687
73	0xbfa8fed8	-1.3202772
74	0xbf8ab9d4	-1.083796
75	0xbf7e97cd	-0.9945038
76	0xbfba4b42	-1.4554217
77	0xbf6c4ea8	-0.9230752
78	0xbf1b8dcc	-0.6076324
79	0xbfa48211	-1.2852193
80	0xbf82a644	-1.020699
81	0xbf1bba34	-0.60831
82	0xbf664f71	-0.8996497
83	0xbfa2509d	-1.2680851
84	0xbdaa4383	-0.08313658
85	0xbf8f3ce8	-1.1190462
86	0xbf879f51	-1.0595495
87	0xbfae3737	-1.36106
88	0x3f3b1e03	0.7309267
89	0x3dc75d90	0.097346425
90	0xbf601f41	-0.8754769
91	0xbf6214ae	-0.88312805
92	0xbf88c575	-1.0685259
93	0xbfbe8b54	-1.488627
94	0xbeb6ec5d	-0.35727206
95	0x3d367032	0.04454059
96	0xbfa34fe8	-1.275876
97	0xbe809bc7	-0.2511885
98	0xbf5ff7c5	-0.8748744
99	0xbf6072f0	-0.8767538
100	0xbf3948de	-0.7237681
101	0xbf1335ba	-0.57503855
102	0xbfb8e862	-1.4445918
103	0xbf9d2855	-1.2277933
104	0xbfbb6b25	-1.4642073
105	0xbf776d77	-0.96651405
106	0xbf4e2e7f	-0.805397
107	0x3f36f4b8	0.7146716
108	0xbf67537b	-0.90361756
109	0x3e38d122	0.18048528
110	0xbeea2099	-0.45727995
111	0xbf770dd9	-0.96505505
112	0xbf6a2266	-0.9145874
113	0x3ea08cd7	0.31357452
114	0x3f208988	0.62709856
115	0xbe8d320b	-0.27577242
116	0xbfdd4e0d	-1.7289444
117	0xbf8f4770	-1.1193676
118	0xbf5e0e20	-0.86740303
119	0xbf2fc475	-0.68659145
120	0xbf6c3400	-0.92266846
121	0xbed37806	-0.41302508
122	0xbf8b5549	-1.0885402
123	0xbf8d418d	-1.103563
124	0xbf352649	-0.70761544
125	0xbf3da10b	-0.7407386
126	0xbf8b8d41	-1.0902482
127	0xbfa309d3	-1.2737373
128	0xbf8d04bb	-1.1017069
129	0x3eaa7898	0.3329513
130	0xbef9fd26	-0.4882595
131	0xbf6bcd3b	-0.9211003
132	0xbf07bcc0	-0.53022385
133	0x3ee669bc	0.45002544
134	0xbf9ce7f6	-1.2258289
135	0x3ea1a494	0.31570876
136	0x3e913a4a	0.28364784
137	0x3fdd34c0	1.7281723
138	0x3ffb4d10	1.9632893
139	0xbe33f195	-0.17572625
140	0x3f18bcb1	0.5966292
141	0x3e36efa6	0.17864856
142	0xbf63518e	-0.8879632
143	0xbe9be473	-0.3044773
144	0x3ec6a3ed	0.3879694
145	0x3f2165e0	0.63046074
146	0x3fa2d380	1.2720795
147	0x3ea06636	0.3132798
148	0xbdb4bcff	-0.08825111
149	0x402942ee	2.64471
150	0xbf48bd13	-0.78413504
151	0x3ef52106	0.47876757
152	0x3ea9c011	0.33154348
153	0x3facd059	1.3501083
154	0x3fa56b1e	1.2923315
155	0x3eb2482f	0.34820697
156	0x3fbc9573	1.4733108
157	0xbe69f52d	-0.22847433
158	0x3f75d029	0.9602075
159	0xbf722953	-0.94594306
160	0x3eed7eeb	0.46385893
161	0x3e60fe70	0.2197206
162	0xbf37a2d5	-0.71732837
163	0x4002ebca	2.0456414
164	0x3f6ea620	0.93222237
165	0x3e1563d0	0.14588857
166	0x3fcc7823	1.5974163
167	0x3e9e2d3b	0.30893883
168	0x3ec15e4a	0.3776725
169	0xbe2844f3	-0.16432552
170	0xbfacd59c	-1.3502688
171	0xbeaf2f12	-0.342156
172	0xbf2b3b9c	-0.6688783
173	0x3f71801b	0.943361
174	0x3d24cf17	0.04023656
175	0xbff5460f	-1.9162005
176	0xbd8ace72	-0.067776576
177	0x3e5b1f77	0.21398722
178	0x3d357f44	0.044310823
179	0x3f468e85	0.7756122
180	0x3f9576bf	1.1676863
181	0x400bf859	2.187033
182	0x3ed410f6	0.4141919
183	0xbee313d0	-0.44351053
184	0x3e841eb2	0.2580467
185	0x3e822e46	0.2542593
186	0x3f1bc0f8	0.6084132
187	0xbe38dcd2	-0.18052986
188	0x3f5f41c8	0.8720975
189	0xbf0bb402	-0.54571545
190	0xbf48c5f7	-0.7842707
191	0x3fab6359	1.3389693
192	0x3f19d89c	0.60096145
193	0xbd2f9fd9	-0.042877052
194	0x3e2cb58f	0.16866134
195	0xbd8da2e3	-0.06915834
196	0x3fa22d26	1.2670028
197	0xbeec878c	-0.46197164
198	0x4002defc	2.04486
199	0x3f2f6bd1	0.6852389
200	0x3f24f499	0.64435726
201	0x3f6d1fb5	0.92626506
202	0x3ffa7567	1.9567078
203	0x3fb8857e	1.4415739
204	0x3f2b8aff	0.67008966
205	0x3f8555d6	1.041682
206	0xbe24c2f5	-0.16089995
207	0xbcf6f398	-0.030145451
208	0xbee16073	-0.44018897
209	0x402741b1	2.6133845
210	0xbebf4483	-0.37356958
211	0x3f00191a	0.500383
212	0xbf88c8ec	-1.0686316
213	0x3e11ff85	0.14257629
214	0xbe8aee6f	-0.27135035
215	0x3ec1e679	0.3787115
216	0xbec394a5	-0.38199344
217	0xbf600e20	-0.87521553
218	0x3f5eb59c	0.86995864
219	0x400f2c60	2.2370834
220	0xbe8ccb0f	-0.2749867
221	0x3e42477a	0.18972579
222	0x3fbce932	1.4758666
223	0xbfbc9303	-1.4732364
224	0x3ed3caeb	0.41365752
225	0x3e002725	0.12514932
226	0x3dc338b3	0.09532299
227	0xbf009d56	-0.50240076
228	0xbf4122a2	-0.7544347
229	0xbed82539	-0.422159
230	0xbedc1faa	-0.42992908
231	0x3ff4a4aa	1.9112751
232	0x3fe3a0dc	1.7783465
233	0xbf73ba6e	-0.95206344
234	0x3f44ee3b	0.7692601
235	0x3da6999f	0.0813477
236	0xbda79b53	-0.081839226
237	0xbfc4c20d	-1.537172
238	0xbf20dab4	-0.62833714
239	0x3f1d7c48	0.61517763
240	0xbf69e896	-0.9137052
241	0x3f1bb53e	0.6082343
242	0xbf8ee683	-1.1164097
243	0xbfa3626d	-1.2764412
244	0xbd4a02fc	-0.049319252
245	0xbd2f9f1a	-0.04287634
246	0xbe61450a	-0.21998993
247	0x3ee69946	0.45038813
248	0xbe5d445b	-0.21608107
249	0xbfe942f7	-1.8223561
250	0x3ed5923c	0.4171313
251	0xbf588741	-0.8458138
252	0xbfd02c86	-1.6263587
253	0x3ec74111	0.3891683
254	0xbefba008	-0.49145532
255	0xbea64593	-0.32474956

lstm2.weight_ih_l0 f4 [512, 128]
0	0x3e23b3ab	0.15986507
1	0x3f7ac4da	0.9795662
2	0xbfe09c10	-1.7547626
3	0xbf053c90	-0.52045536
4	0xbfaf8a86	-1.3714149
5	0x3e89031d	0.26760188
6	0x3c1c9dba	0.009559089
7	0xbfd3cc64	-1.654675
8	0xbf93ceb5	-1.1547457
9	0x3e8cfe5e	0.27537817
10	0xbf9ba5c1	-1.2159959
11	0x403ebf5f	2.9804304
12	0x3f9316cd	1.1491333
13	0xbf00b2d4	-0.5027287
14	0xbf23852b	-0.63875073
15	0x3f09685d	0.5367487
16	0xc00b8580	-2.1800232
17	0xbff5773e	-1.9177015
18	0x4001089a	2.01615
19	0x3efcb887	0.49359533
20	0x3fd8f366	1.6949279
21	0xbf710b98	-0.94158316
22	0xbf380dbb	-0.7189595
23	0x3f8cf8bc	1.1013408
24	0x3f9e260f	1.2355365
25	0xbf1f17e9	-0.6214586
26	0x3f0384eb	0.5137469
27	0xbf1ec04a	-0.6201216
28	0x404fd288	3.2472248
29	0x40020228	2.0313816
30	0xbebc65dd	-0.36796466
31	0xbfd3b810	-1.6540546
32	0x3fa3a458	1.2784529
33	0x3f671fc8	0.9028287
34	0xbf6a271a	-0.91465914
35	0xbff914cc	-1.9459472
36	0xbea3c3fa	-0.31985456
37	0xbf850695	-1.0392634
38	0xbf8a6e43	-1.0814899
39	0xbfddbfa2	-1.7324107
40	0x3d3a39a0	0.04546511
41	0xbf8ff1bf	-1.124565
42	0xc04f062b	-3.2347515
43	0xbfd71d79	-1.6805869
44	0xbeb7723e	-0.35829347
45	0x3e5dbec8	0.21654809
46	0x3efc683c	0.49298275
47	0x3fedafe7	1.8569306
48	0xbf36dcda	-0.7143074
49	0x401eb18c	2.4795866
50	0x3fc130d5	1.5093027
51	0x3f41ccc7	0.7570309
52	0xbe974a0d	-0.29548684
53	0xbf51104e	-0.81665504
54	0x3fb9e075	1.4521624
55	0xc02001a0	-2.5000992
56	0xbe33e533	-0.17567901
57	0x3fb744eb	1.4317907
58	0x3e506d81	0.20354272
59	0x407af75c	3.9213476
60	0x3f5272b7	0.8220629
61	0x3f818538	1.011878
62	0xbfd5962d	-1.6686455
63	0xbf86017d	-1.0469204
64	0x409fc903	4.9932876
65	0xbf8941d1	-1.072321
66	0x3ef74e4d	0.48301926
67	0x3ddb087f	0.1069498
68	0x3f15ac28	0.58465815
69	0x3f77843c	0.9668615
70	0x4034c367	2.8244264
71	0x3f5105e7	0.8164963
72	0xbe473e4b	-0.19457357
73	0xbf3b7571	-0.73226076
74	0xbf367d7a	-0.7128521
75	0x3e0acbaf	0.13554262
76	0x3fdfd513	1.74869
77	0xbe38082d	-0.17971869
78	0xbe51b959	-0.20480861
79	0x3f67dcd8	0.90571356
80	0xbfc59593	-1.5436271
81	0x403c2f11	2.9403727
82	0x4018253f	2.3772733
83	0xbe873b18	-0.26412272
84	0x3ef02587	0.4690363
85	0xbe2d2133	-0.16907196
86	0xbf69dc48	-0.9135175
87	0x3e77969e	0.2417855
88	0x3fba83f8	1.4571524
89	0xbfc6c732	-1.552954
90	0xbf00cc82	-0.50312054
91	0x3ec18f0d	0.37804452
92	0xbf34b7ff	-0.70593256
93	0x3f1f0419	0.6211563
94	0xbf81efae	-1.015127
95	0xbf74fa38	-0.95694304
96	0xbf15295d	-0.5826624
97	0x3f01865f	0.5059566
98	0xbf97d194	-1.1860833
99	0x3e18358a	0.14864174
100	0xbeb1647a	-0.3464697
101	0x3fad83af	1.3555812
102	0xbf893bf9	-1.0721427
103	0xbf218fd9	-0.6311012
104	0x3fe764e5	1.8077666
105	0xbf81c146	-1.0137107
106	0xbe5ef3c2	-0.21772674
107	0xbfc3b365	-1.5289122
108	0xbe55e6f3	-0.20888881
109	0xbf8974ab	-1.0738729
110	0xbf1efca1	-0.6210423
111	0x3f8c4614	1.0958886
112	0xbfff0a85	-1.9925085
113	0xbf623185	-0.8835681
114	0x3f561a72	0.836341
115	0xbf672f08	-0.9030614
116	0xbfb7fa78	-1.4373312
117	0x3f41e6b6	0.7574266
118	0xc00338aa	-2.0503335
119	0xc02aefe6	-2.6708922
120	0xbfa51a37	-1.2898625
121	0x403bb9d0	2.933216
122	0x3ec55b8d	0.3854641
123	0x40084c42	2.1296544
124	0xc026d5e5	-2.606805
125	0x3ff25e9a	1.893512
126	0xbf166f64	-0.5876372
127	0x40529ea4	3.2909327
128	0x4028c3ef	2.6369588
129	0xbf00ba19	-0.5028396
130	0xbf91c6bd	-1.1388775
131	0xbf4856f8	-0.78257704
132	0x400b180d	2.173343
133	0x3fb4e686	1.413285
134	0x4083299f	4.0988307
135	0xbf499684	-0.78745294
136	0xc0607e06	-3.5076919
137	0x3f1fb2a6	0.6238197
138	0x3f092fc0	0.53588486
139	0x3f214e2d	0.6300991
140	0x3ce0454c	0.027376793
141	0x3ef095e7	0.46989366
142	0xbf94a068	-1.1611452
143	0x3f9cb868	1.2243776
144	0xbfc4818b	-1.5352033
145	0xc007a772	-2.119595
146	0xbf5bf08d	-0.85913926
147	0x3fa4e224	1.2881513
148	0x3f3ca5d1	0.73690516
149	0xbf07b4af	-0.53010076
150	0xbf42046f	-0.75788015
151	0x3f4fe824	0.81213593
152	0xc0207351	-2.5070384
153	0xbf841470	-1.0318737
154	0x3fd8b822	1.6931193
155	0x3fef3b3f	1.8689955
156	0x3fa61cbb	1.2977518
157	0xbee09e74	-0.4387089
158	0x3fa82e4a	1.3139126
159	0x3d7101a7	0.058839466
160	0xbfdf6627	-1.745305
161	0x3f19fdc5	0.60152847
162	0xbf845f5c	-1.0341601
163	0x3f5af5f9	0.85531574
164	0xbecf9414	-0.40542662
165	0x3d975b3a	0.07390447
166	0xbf8799d3	-1.0593818
167	0xbfece035	-1.8505923
168	0x3f288522	0.65828145
169	0xbf89123e	-1.0708692
170	0x3e9e2859	0.30890158
171	0xbff217f6	-1.8913562
172	0xbebd6483	-0.36990747
173	0x3f75e31b	0.9604966
174	0xbf827a39	-1.0193549
175	0xbeceab86	-0.40365237
176	0x4005f634	2.093152
177	0x3f39b84d	0.72546846
178	0x3fac5591	1.3463613
179	0xbfe1474d	-1.7599884
180	0x3d7de504	0.061985984
181	0x3eece6f1	0.46269944
182	0xbfe78441	-1.8087236
183	0xbdc718a6	-0.09721498
184	0xbe015739	-0.12630929
185	0xbf8b58ae	-1.0886438
186	0xbef2772b	-0.47356543
187	0xbf5888f5	-0.8458398
188	0x3da1c609	0.078991
189	0xc024fd48	-2.577959
190	0x4001ff5b	2.0312107
191	0xbf7eccf0	-0.9953146
192	0xc0544c22	-3.3171468
193	0xbf856fd7	-1.0424756
194	0xc0161c74	-2.3454866
195	0x4011d553	2.2786453
196	0xbff6eadc	-1.9290423
197	0xc05e8414	-3.4768114
198	0xbf8f9b4a	-1.1219265
199	0xc01ec67e	-2.480865
200	0xbc53573e	-0.012899218
201	0xbfeca482	-1.8487704
202	0xbf5a5efb	-0.8530118
203	0xbf9a990a	-1.2077954
204	0xbea7b743	-0.32757005
205	0xbe42438f	-0.18971084
206	0x3ee734c1	0.45157436
207	0x3fce30fd	1.61087
208	0x3f8d30fe	1.1030576
209	0x3f2b355e	0.66878307
210	0xc03e0515	-2.9690602
211	0x3fc84273	1.5645279
212	0xc01ff15f	-2.4991071
213	0xbf3be109	-0.7339025
214	0x3f89569e	1.0729558
215	0x3eeb637a	0.45974332
216	0xbf9d4b08	-1.2288523
217	0xc02cea77	-2.7018106
218	0x3f8d33f2	1.1031477
219	0xbff439ee	-1.9080179
220	0xbf02445c	-0.5088556
221	0xbfff8115	-1.9961268
222	0xbf8550a0	-1.041523
223	0x4008292c	2.127513
224	0x3fd9119c	1.6958499
225	0x3ed34fd4	0.41271842
226	0x3f399de3	0.7250654
227	0x3e2819e4	0.16416126
228	0xbf635f83	-0.88817614
229	0x3e8edb8d	0.2790188
230	0xbf00bd5c	-0.5028894
231	0xbf6a5d89	-0.91548973
232	0xc01db0eb	-2.4639232
233	0xbf5274dc	-0.82209563
234	0xbf912d30	-1.1341915
235	0xbecb9a8c	-0.39766347
236	0x3f41d2e0	0.75712395
237	0x3e6e6a84	0.2328282
238	0x3fc6bd6c	1.5526557
239	0xc041ad73	-3.0262115
240	0xbffd6f58	-1.9799604
241	0x3fae3605	1.3610235
242	0xbfaf7b42	-1.370949
243	0x3f1578ae	0.5838727
244	0x3ee8d876	0.45477647
245	0xbb22dfdf	-0.0024852676
246	0xbf38b5a0	-0.7215214
247	0x40303d24	2.7537317
248	0xbf75e996	-0.9605955
249	0xbf8c57b5	-1.0964266
250	0x404bf930	3.1870842
251	0x3fdc2531	1.719885
252	0x3e5c1989	0.21494116
253	0x3ea4f3d0	0.32217264
254	0xbebe1616	-0.37126225
255	0x3f4cebc2	0.8004724

lstm2.weight_hh_l0 f4 [512, 128]
0	0xbebb9a59	-0.36641195
1	0x3f96fe9c	1.1796451
2	0x3bfdc8c1	0.007744879
3	0x3c84fbfb	0.016233435
4	0x3eb5f942	0.3554173
5	0xbf2b3b53	-0.66887397
6	0xc03d0bce	-2.9538455
7	0x3f96d69d	1.1784245
8	0xbf4cc7ff	-0.7999267
9	0xbf6d6a4f	-0.9274034
10	0x3f1358c4	0.5755732
11	0xbf766694	-0.9625027
12	0x3fa8cf15	1.3188196
13	0xbf916e3f	-1.136177
14	0xbe8cdbc1	-0.2751141
15	0x3e36ef76	0.17864785
16	0x3fa353fb	1.2760004
17	0x3fb8f917	1.4451016
18	0xbf893173	-1.0718216
19	0xbf48d272	-0.78446114
20	0xbd932f41	-0.07186747
21	0xbeec7fdc	-0.461913
22	0xbf83410c	-1.0254226
23	0x3f518cd4	0.8185551
24	0xbff7620a	-1.9326794
25	0x3e491e07	0.19640361
26	0x3e4e62e2	0.20154908
27	0xbf6f6b96	-0.9352354
28	0xbf17bd79	-0.5927349
29	0xbf7a3a75	-0.9774545
30	0xbf41c2df	-0.75687975
31	0xbf932e38	-1.149848
32	0xbf20efc3	-0.6286585
33	0x3f9d11a8	1.2271013
34	0x3f730b6d	0.9493931
35	0xbfb0d265	-1.3814207
36	0xbc59a4f6	-0.013283959
37	0x3ee2098b	0.44147906
38	0x3e6d0620	0.23146868
39	0x3fd2ee2a	1.6478932
40	0xbebd6804	-0.3699342
41	0xbf92e4c1	-1.147606
42	0xbe2bc6b9	-0.16775025
43	0xbed0d0bb	-0.4078425
44	0xbf019333	-0.50615233
45	0xbfe31234	-1.773993
46	0x3fb3e845	1.4055258
47	0xbe5a4c93	-0.21318273
48	0x3f8592bf	1.0435408
49	0xbe488a3b	-0.1958398
50	0xbf5e32ea	-0.8679644
51	0xbe98dd84	-0.29856503
52	0xbecefcb4	-0.40427172
53	0x3fcc039c	1.5938601
54	0xbf1d2eb7	-0.61399406
55	0x3c9ccb02	0.01913977
56	0x3f11ffcb	0.57030934
57	0x3f53b428	0.8269677
58	0xbf63ca18	-0.88980246
59	0x3e14d2ac	0.1453349
60	0xbebddf7e	-0.37084574
61	0x3ed02774	0.406551
62	0xbec5897e	-0.3858146
63	0xbf272385	-0.65288574
64	0xbe7b695c	-0.2455191
65	0x3ef2213d	0.47290984
66	0x3eced20e	0.40394634
67	0xbf3fc2c7	-0.7490658
68	0xbe895736	-0.2682435
69	0xbec4b8a6	-0.38422126
70	0xbe26e286	-0.1629735
71	0x3e896aac	0.26839197
72	0x3ef04360	0.46926403
73	0xbeef1899	-0.46698454
74	0xbf86ccbc	-1.053123
75	0xbf407de3	-0.7519209
76	0xbf6ee50a	-0.93318236
77	0x3f8cfb98	1.101428
78	0xbff00cf4	-1.8753953
79	0x3dffbdf3	0.12487402
80	0xbf1bc5d9	-0.60848767
81	0x3f6d7273	0.9275276
82	0xbfe1ba02	-1.763489
83	0xbeed9ce5	-0.46408764
84	0xc0134304	-2.3009653
85	0x3f1d5e6d	0.6147221
86	0x3f090f32	0.5353881
87	0xc0135159	-2.30184
88	0xbe94a4e1	-0.29032043
89	0xbf298e56	-0.6623281
90	0xbf785670	-0.97006893
91	0xbd0878fa	-0.033318497
92	0x3d59cd07	0.053174045
93	0x3e91e3bb	0.28494057
94	0x3f341e8f	0.7035913
95	0xbef58997	-0.47956535
96	0x3f06263e	0.524021
97	0xbf7ede14	-0.99557614
98	0x402e6604	2.7249765
99	0x40023438	2.0344372
100	0x402996a6	2.6498199
101	0xbfae513c	-1.3618541
102	0xbd9d867d	-0.07691667
103	0x3f3d5935	0.73964244
104	0xbe976787	-0.29571173
105	0x402586c3	2.5863502
106	0x3dc14804	0.09437564
107	0x3f678da8	0.90450525
108	0xbf7e8670	-0.99423885
109	0xbe6ce3a8	-0.23133719
110	0x3f950e4f	1.1644992
111	0xbf146bc0	-0.57976913
112	0xbf74915a	-0.9553429
113	0x3e12f22f	0.14350198
114	0x3fa7a3ec	1.30969
115	0xbf3de6b3	-0.74180144
116	0xbfc2a0a4	-1.5205274
117	0xbed279eb	-0.4110864
118	0x3e862165	0.26197353
119	0xbf967fd4	-1.175776
120	0xbf9c3e9f	-1.220661
121	0x3f8fa75f	1.1222953
122	0x3fa30655	1.2736307
123	0x3f4a697f	0.79067224
124	0xbf653363	-0.89531535
125	0xbef560ae	-0.47925323
126	0x3fe29f47	1.7704858
127	0xbe0b1b17	-0.13584553
128	0xbef6f559	-0.4823406
129	0xbf817c87	-1.0116128
130	0x40089538	2.1341076
131	0x3f0ebd78	0.55757856
132	0x3f4835a2	0.7820684
133	0xc00e4080	-2.2226868
134	0x3f4a7bf4	0.7909539
135	0xbe67c1a6	-0.22632465
136	0x40756016	3.8339896
137	0xbed2f4ec	-0.41202486
138	0x3e33c16c	0.17554253
139	0x3ff7ac95	1.9349543
140	0xbf1e0ec9	-0.6174131
141	0x401a5096	2.4111686
142	0x3f994fac	1.1977439
143	0x3f84e574	1.0382524
144	0xbe879fab	-0.26489004
145	0x3fa9dd57	1.3270673
146	0xbe9a751b	-0.3016747
147	0x3f936a8d	1.1516892
148	0x3ea09f15	0.3137137
149	0xbf667624	-0.9002402
150	0x3ea7406d	0.3266634
151	0xbfcac63b	-1.5841745
152	0x3f80a5ea	1.0050633
153	0x3f834728	1.025609
154	0xbfc23eab	-1.5175375
155	0xbfe8b393	-1.8179802
156	0xbeb777c4	-0.3583356
157	0xbf9018a1	-1.1257516
158	0xbeb9b174	-0.36268198
159	0x3fda2632	1.7042906
160	0x3f120998	0.5704589
161	0xbf6a96cb	-0.9163634
162	0xbf013e8f	-0.5048608
163	0xbed925ef	-0.42411754
164	0x3f3a89be	0.7286643
165	0xbf7cfa57	-0.9881949
166	0x3f59881b	0.84973305
167	0xbe954782	-0.2915612
168	0xbe34d538	-0.17659461
169	0x3dc573c9	0.09641225
170	0x3f705fe4	0.9389632
171	0xbf05404a	-0.5205122
172	0xbe91215e	-0.2834577
173	0xbf88c410	-1.0684834
174	0x3f08179a	0.53161013
175	0xbe0afcac	-0.13572949
176	0x3f1b0984	0.60561395
177	0xbd52c2ca	-0.051455297
178	0x3ed10aa1	0.40828422
179	0xbfdd5dec	-1.7294288
180	0x402314d3	2.548146
181	0x3e3ebadf	0.18625973
182	0xbd9ecb8c	-0.07753667
183	0x3d3bdfc4	0.045867696
184	0x3eefaaff	0.46810147
185	0xbfd55780	-1.6667328
186	0xc011611c	-2.271552
187	0x3e7fe54b	0.24989812
188	0xbe131f34	-0.14367372
189	0xbcaa1035	-0.020759681
190	0xbf0cf980	-0.55068207
191	0xbda41c9d	-0.0801327
192	0xbfcd9771	-1.6061841
193	0x3fadec3e	1.358772
194	0xbe70fbcc	-0.23533553
195	0xbfbce8fb	-1.47586
196	0x3f60dd0d	0.87837297
197	0x3fe51705	1.789765
198	0x3eb1aba0	0.34701252
199	0x3f48c93e	0.7843207
200	0xbe328e1d	-0.17437024
201	0x40401595	3.0013173
202	0x3e8bc576	0.27299088
203	0x3f338c76	0.701362
204	0x3ff4dfa6	1.9130752
205	0x3f004f9f	0.5012149
206	0x3e62a856	0.22134528
207	0xbe82f246	-0.25575465
208	0xbf056697	-0.52109665
209	0x3f82afa0	1.0209846
210	0x3f654afb	0.89567536
211	0xbfbb3c39	-1.4627753
212	0x3f870394	1.0547967
213	0x3d259d82	0.040433414
214	0xbe9b8466	-0.3037445
215	0x3dd3c6f7	0.10340684
216	0x3f687713	0.9080669
217	0x3fd73bc8	1.6815119
218	0x3f5c0663	0.85947245
219	0xbeb2d8be	-0.34930986
220	0xbfc39615	-1.5280176
221	0xbf202a04	-0.6256411
222	0xbeecdec2	-0.462637
223	0x3f593834	0.84851384
224	0x3f896c82	1.0736239
225	0x3f6f46aa	0.934672
226	0x3f9c8b7e	1.223007
227	0xbf1ab8dd	-0.6043833
228	0xbe252ba1	-0.16129924
229	0xc00b1c19	-2.17359
230	0x3ecf96f1	0.40544847
231	0x4060facd	3.5153077
232	0xbf1eae04	-0.61984277
233	0x3eeb2c78	0.45932364
234	0xbed1f428	-0.4100659
235	0x3fd7fed5	1.6874644
236	0xbf0534af	-0.52033514
237	0x3e0dab8b	0.1383497
238	0xbf7ad0d3	-0.9797489
239	0x3f88fc19	1.0701934
240	0x3ec18fc7	0.37805006
241	0xbe42cc97	-0.19023357
242	0xbf1ce1e5	-0.6128219
243	0xbf1defbe	-0.6169394
244	0x3f8bad18	1.0912199
245	0xbf4531be	-0.77029026
246	0x3f30f304	0.6912081
247	0x3deebae2	0.11656739
248	0x3e210946	0.15726194
249	0xbef2f2bb	-0.47450814
250	0xbdec4e32	-0.11538352
251	0x3e217951	0.15768935
252	0xbf085def	-0.5326833
253	0xbea93911	-0.3305135
254	0x3e7db108	0.24774563
255	0x3f262026	0.64892805

lstm2.bias_ih_l0 f4 [512]
0	0xbe250f63	-0.16119151
1	0xbfa81890	-1.3132496
2	0xbf379f2e	-0.71727264
3	0xbf13c3b7	-0.5772051
4	0xbf59f1bd	-0.8513449
5	0xc020cd70	-2.512539
6	0xbf1d341c	-0.6140764
7	0xc0052c20	-2.0808182
8	0xbfd3a944	-1.6536031
9	0x3e793578	0.24336803
10	0xbf062faf	-0.5241651
11	0xbf8729e2	-1.0559657
12	0xbe25a412	-0.16175869
13	0xbfa8b91e	-1.3181493
14	0xbdbde800	-0.09272766
15	0xbfb3d3e4	-1.4049039
16	0xbf2d6a1d	-0.6774004
17	0xbf632196	-0.88723123
18	0xbf03dc8a	-0.5150839
19	0xbf70fce7	-0.941359
20	0xbf8521f4	-1.0400987
21	0x3fe4b7d3	1.7868599
22	0xbf78a7fd	-0.9713133
23	0xbfea8362	-1.8321345
24	0xc0087ad8	-2.1324978
25	0x3bfa651f	0.007641449
26	0x3e1c16c5	0.15243061
27	0xbe6c3a6e	-0.23069164
28	0xbf3991b6	-0.7248796
29	0xbe8f60e6	-0.28003615
30	0xbefc2ae1	-0.49251464
31	0xbf35777e	-0.70885456
32	0xbf48ded7	-0.78465027
33	0xbf9f8aed	-1.2464272
34	0xbf919a0d	-1.1375138
35	0x3f96a9f6	1.1770618
36	0xbf4357ca	-0.7630583
37	0xbfd02039	-1.6259834
38	0xc0028339	-2.0392592
39	0xbf7f19e5	-0.99648887
40	0xbd259806	-0.040428184
41	0xbe9f9d93	-0.31174907
42	0xbfa08917	-1.2541837
43	0xbfc0d7d3	-1.5065864
44	0xbf934e94	-1.1508355
45	0xc037f9ef	-2.8746297
46	0xbff4fe83	-1.9140171
47	0xbf570840	-0.83996964
48	0xbe324a58	-0.17411172
49	0xbd36b6d2	-0.044607945
50	0xbfca4428	-1.580205
51	0x3f47c43b	0.780338
52	0xbfddfb7f	-1.7342376
53	0xbde1b166	-0.11020164
54	0xbfce4b94	-1.6116815
55	0xbfabeeb5	-1.3432223
56	0xc00644ab	-2.0979412
57	0xbf433b18	-0.76262045
58	0xbf8bda85	-1.0926062
59	0x3f19ceaf	0.60081
60	0xc01a8582	-2.4143987
61	0x3f0fc5cc	0.5616119
62	0xc002eae6	-2.045587
63	0x3f2b6452	0.6694995
64	0xbf91f0d0	-1.1401615
65	0xbf437586	-0.763512
66	0xbebdc36f	-0.37063166
67	0xbeb0a1d2	-0.3449846
68	0xbe6fc78b	-0.23415963
69	0xbf98e51a	-1.1944916
70	0xbbcbe0ee	-0.006221882
71	0xbf9dda7e	-1.2332304
72	0xbfb91da8	-1.4462175
73	0xc015d375	-2.3410313
74	0xbd998c59	-0.07497472
75	0xbfc98272	-1.5742934
76	0x3d25c27c	0.040468678
77	0xbf34d9cb	-0.70644826
78	0xbf9a948e	-1.2076585
79	0x3eae758b	0.34074053
80	0xbfdd2935	-1.72782
81	0x3e80bee2	0.25145632
82	0xbf1fa892	-0.6236659
83	0xc0233fce	-2.5507693
84	0xbf758ba3	-0.95916194
85	0xbf648252	-0.89261353
86	0xbf863f27	-1.0488023
87	0xbfb2e906	-1.3977363
88	0xbfdf40d5	-1.744166
89	0xbf99eb2d	-1.2024895
90	0xbfef795d	-1.8708912
91	0xbf311810	-0.6917734
92	0xbf595a0a	-0.84903014
93	0xbfab9c5b	-1.3407091
94	0x3deffd8e	0.117182836
95	0xbf9a4cc7	-1.205468
96	0xbf2c58bf	-0.67322916
97	0xbf1b77e4	-0.60729814
98	0xbedd9568	-0.4327805
99	0xbede485b	-0.43414578
100	0xbfa6b34f	-1.3023471
101	0xbf84b74d	-1.0368439
102	0xbf309ab0	-0.68986034
103	0xbfa7e50e	-1.3116777
104	0xbf5c6a99	-0.86100155
105	0x3eee30e2	0.4652167
106	0xbfa3660e	-1.276552
107	0xbfc7d91d	-1.5613133
108	0xbfa080f4	-1.2539353
109	0xbe0bd544	-0.13655573
110	0xbdfa686d	-0.12226949
111	0xc0586fed	-3.3818314
112	0xbf3563f9	-0.7085567
113	0xc00cfc94	-2.2029161
114	0xbedbb704	-0.42913067
115	0xbe12e029	-0.14343323
116	0xbfd2d50b	-1.6471266
117	0xc01366ac	-2.3031416
118	0xbe7d72a5	-0.24750765
119	0xbfaa7cde	-1.3319356
120	0xbf44956d	-0.76790506
121	0x3e859ca8	0.26096082
122	0x3dffb08f	0.12484848
123	0xbfe06651	-1.7531224
124	0xbf6eb059	-0.93237835
125	0xbd954e86	-0.07290368
126	0xbfc3aebc	-1.52877
127	0xbeb294bb	-0.34879097
128	0xbf689693	-0.9085476
129	0xbfe40006	-1.7812507
130	0xbf317bc9	-0.69329506
131	0xbfe6430f	-1.7989215
132	0xbf91b6df	-1.1383933
133	0x3f8e26db	1.1105608
134	0xbf26ab65	-0.6510528
135	0x3d45eb06	0.04831984
136	0x3fc60a90	1.5471973
137	0x3f5cf492	0.86310685
138	0x3e361d80	0.17784691
139	0xbf889e91	-1.0673391
140	0xbf5e39c5	-0.868069
141	0x3c91ac24	0.017782278
142	0xbf9ae7c3	-1.2101978
143	0xbe991846	-0.29901332
144	0xbf95447d	-1.1661526
145	0x3fd2b796	1.6462276
146	0xbf31f024	-0.6950705
147	0xbda095f6	-0.07841103
148	0xbf128409	-0.5723272
149	0x400928b6	2.1431098
150	0xbf919488	-1.1373453
151	0xbef0fbc1	-0.47067073
152	0x3e8d3e5a	0.27586633
153	0x3fc60165	1.5469176
154	0x3ff40ae0	1.9065819
155	0x3f88fd67	1.0702332
156	0x3f2e363e	0.68051517
157	0x3e645348	0.22297394
158	0xbecab49f	-0.39590928
159	0xbf05f2bb	-0.523235
160	0xbebc0fb5	-0.36730734
161	0xbf571804	-0.8402102
162	0xbf14037f	-0.57817835
163	0x3ffba137	1.9658574
164	0x3da33d34	0.07970658
165	0xbf9d25cf	-1.2277163
166	0xbf41ddb2	-0.75728905
167	0x3e804137	0.25049755
168	0xbf51e31b	-0.8198716
169	0xbef5a7a6	-0.47979468
170	0xbfd3c1c8	-1.6543512
171	0xbf15891b	-0.5841233
172	0xbf9417d4	-1.1569772
173	0x3f478c83	0.7794878
174	0x3f9df261	1.2339593
175	0x3d3b90e0	0.04579246
176	0x3e4887db	0.19583075
177	0xbf166c43	-0.58758944
178	0x3e5ee98f	0.21768783
179	0x3f81ad6a	1.0131047
180	0xbe562cae	-0.20915481
181	0x3fab41b7	1.337943
182	0xbe179136	-0.14801487
183	0xbe9b5a76	-0.30342454
184	0x3fb2d22b	1.3970388
185	0xbe0bd5d6	-0.1365579
186	0x3d0ec9c5	0.03486039
187	0xbfd1f948	-1.64042
188	0x3f11dbc5	0.56975967
189	0xbfa86f89	-1.3159038
190	0xbe0d3cfb	-0.13792793
191	0x3f98cdfa	1.1937859
192	0xbf5e0b7e	-0.86736286
193	0xbe218800	-0.15774536
194	0xbf0ae555	-0.5425618
195	0xbf05143d	-0.51984006
196	0x4044d22c	3.0753279
197	0xbf1309bf	-0.57436746
198	0x3fed851f	1.855625
199	0x3fbbd743	1.4675068
200	0x3fae50a1	1.3618356
201	0x3e287d64	0.16454083
202	0xbf760e7d	-0.9611586
203	0x3f5eb891	0.87000376
204	0x3f59d913	0.85096854
205	0xbed0e0d8	-0.40796542
206	0xbf88bfce	-1.0683534
207	0xbfb9827b	-1.4492944
208	0xbebfbb85	-0.37447754
209	0x3f533233	0.8249847
210	0xbefda3c5	-0.4953901
211	0x3f99a969	1.2004825
212	0xbf180384	-0.59380364
213	0xbf73c2f2	-0.9521934
214	0x3d730570	0.059331357
215	0x3f005db4	0.5014298
216	0xbf5f9a07	-0.873444
217	0xbed1fe3c	-0.41014278
218	0x3ec091d1	0.3761125
219	0xbd8649b0	-0.065570235
220	0x3f135f7f	0.5756759
221	0xbf23768f	-0.6385278
222	0x3fdae5b4	1.710135
223	0xbec4e0bc	-0.3845271
224	0xc009f88f	-2.1557958
225	0xbf1ba96a	-0.6080538
226	0xbb3003a4	-0.0026857639
227	0xbfc933bb	-1.5718912
228	0xbfd5e92e	-1.6711786
229	0xbf49ef1e	-0.7888049
230	0xbe15c88e	-0.14627287
231	0x3ffd8548	1.9806299
232	0xbfbe873b	-1.4885019
233	0xbf097db0	-0.5370741
234	0xbee89feb	-0.45434508
235	0xbeef56b2	-0.4674583
236	0xbf1c2ca2	-0.61005604
237	0x3c2d37ab	0.010572354
238	0xbfa64c82	-1.2992098
239	0x3fac6261	1.3467523
240	0xbe260295	-0.16211922
241	0xbea486d7	-0.32134125
242	0xbf41ce54	-0.75705457
243	0xbe667dbb	-0.225089
244	0xbf1a4864	-0.6026671
245	0x3f0acfb1	0.5422316
246	0xbf670539	-0.90242344
247	0xbf21e272	-0.63236153
248	0xbfa5f924	-1.2966657
249	0xbfa3d6e7	-1.2799958
250	0xc005cd49	-2.0906546
251	0xbdde4229	-0.10852463
252	0xbeb8d3c1	-0.36099055
253	0xbfc9284d	-1.5715424
254	0xbf11a961	-0.56899077
255	0xbfe74e18	-1.8070707
